…
.5))\n","model.add(Dense(1, activation='sigmoid', kernel_initializer='glorot_normal', kernel_regularizer= keras.regularizers.l2(0.01)))\n","model.compile(loss='binary_crossentropy', optimizer=Adam(lr=0.01992351943721117), metrics=['accuracy'])\n","model.summary()"],"execution_count":null,"outputs":[{"output_type":"stream","text":["Model: \"sequential_1\"\n","_________________________________________________________________\n","Layer (type)                 Output Shape              Param #   \n","=================================================================\n","conv2d (Conv2D)              (None, 32, 32, 16)        304       \n","_________________________________________________________________\n","batch_normalization (BatchNo (None, 32, 32, 16)        64        \n","_________________________________________________________________\n","conv2d_1 (Conv2D)            (None, 32, 32, 16)        2320      \n","_________________________________________________________________\n","batch_normalization_1 (Batch (None, 32, 32, 16)        64        \n","_________________________________________________________________\n","max_pooling2d (MaxPooling2D) (None, 16, 16, 16)        0         \n","_________________________________________________________________\n","conv2d_2 (Conv2D)            (None, 16, 16, 32)        4640      \n","_________________________________________________________________\n","batch_normalization_2 (Batch (None, 16, 16, 32)        128       \n","_________________________________________________________________\n","conv2d_3 (Conv2D)            (None, 16, 16, 32)        9248      \n","_________________________________________________________________\n","batch_normalization_3 (Batch (None, 16, 16, 32)        128       \n","_________________________________________________________________\n","max_pooling2d_1 (MaxPooling2 (None, 8, 8, 32)          0         \n","_________________________________________________________________\n","conv2d_4 (Conv2D)            (None, 8, 8, 64)          18496     \n","_________________________________________________________________\n","batch_normalization_4 (Batch (None, 8, 8, 64)          256       \n","_________________________________________________________________\n","conv2d_5 (Conv2D)            (None, 8, 8, 64)          36928     \n","_________________________________________________________________\n","batch_normalization_5 (Batch (None, 8, 8, 64)          256       \n","_________________________________________________________________\n","flatten (Flatten)            (None, 4096)              0         \n","_________________________________________________________________\n","dense (Dense)                (None, 256)               1048832   \n","_________________________________________________________________\n","batch_normalization_6 (Batch (None, 256)               1024      \n","_________________________________________________________________\n","dropout (Dropout)            (None, 256)               0         \n","_________________________________________________________________\n","dense_1 (Dense)              (None, 128)               32896     \n","_________________________________________________________________\n","batch_normalization_7 (Batch (None, 128)               512       \n","_________________________________________________________________\n","dropout_1 (Dropout)          (None, 128)               0         \n","_________________________________________________________________\n","dense_2 (Dense)              (None, 1)                 129       \n","=================================================================\n","Total params: 1,156,225\n","Trainable params: 1,155,009\n","Non-trainable params: 1,216\n","_________________________________________________________________\n"],"name":"stdout"}]},{"cell_type":"markdown","metadata":{"id":"bsQWFD0M86pA"},"source":["Train the model"]},{"cell_type":"code","metadata":{"id":"ZGuyM25L7uc0
…
28, activation='relu'))\n","model.add(BatchNormalization())\n","model.add(Dropout(0.3))\n","model.add(Dense(64, activation='relu'))\n","model.add(BatchNormalization())\n","model.add(Dropout(0.2))\n","model.add(Dense(1, activation=\"sigmoid\"))\n","model.summary()\n"],"execution_count":null,"outputs":[{"output_type":"stream","text":["Model: \"sequential\"\n","_________________________________________________________________\n","Layer (type)                 Output Shape              Param #   \n","=================================================================\n","conv2d (Conv2D)              (None, 32, 32, 16)        304       \n","_________________________________________________________________\n","batch_normalization (BatchNo (None, 32, 32, 16)        64        \n","_________________________________________________________________\n","activation (Activation)      (None, 32, 32, 16)        0         \n","_________________________________________________________________\n","conv2d_1 (Conv2D)            (None, 32, 32, 16)        2304      \n","_________________________________________________________________\n","batch_normalization_1 (Batch (None, 32, 32, 16)        64        \n","_________________________________________________________________\n","activation_1 (Activation)    (None, 32, 32, 16)        0         \n","_________________________________________________________________\n","max_pooling2d (MaxPooling2D) (None, 16, 16, 16)        0         \n","_________________________________________________________________\n","residual_unit (ResidualUnit) (None, 8, 8, 16)          5056      \n","_________________________________________________________________\n","residual_unit_1 (ResidualUni (None, 4, 4, 32)          14720     \n","_________________________________________________________________\n","residual_unit_2 (ResidualUni (None, 4, 4, 32)          18688     \n","_________________________________________________________________\n","residual_unit_3 (ResidualUni (None, 2, 2, 64)          58112     \n","_________________________________________________________________\n","max_pooling2d_1 (MaxPooling2 (None, 2, 2, 64)          0         \n","_________________________________________________________________\n","flatten (Flatten)            (None, 256)               0         \n","_________________________________________________________________\n","dense (Dense)                (None, 256)               65792     \n","_________________________________________________________________\n","batch_normalization_13 (Batc (None, 256)               1024      \n","_________________________________________________________________\n","dropout (Dropout)            (None, 256)               0         \n","_________________________________________________________________\n","dense_1 (Dense)              (None, 128)               32896     \n","_________________________________________________________________\n","batch_normalization_14 (Batc (None, 128)               512       \n","_________________________________________________________________\n","dropout_1 (Dropout)          (None, 128)               0         \n","_________________________________________________________________\n","dense_2 (Dense)              (None, 64)                8256      \n","_________________________________________________________________\n","batch_normalization_15 (Batc (None, 64)                256       \n","_________________________________________________________________\n","dropout_2 (Dropout)          (None, 64)                0         \n","_________________________________________________________________\n","dense_3 (Dense)              (None, 1)                 65        \n","=================================================================\n","Total params: 208,113\n","Trainable params: 206,353\n","Non-trainable params: 1,760\n","_________________________________________________________________\n"],"name":"stdout"}]},{"cell_type":"code","metadata":{"id":"9CzrKGa274qy"},"source":["model.compile(loss='binary_crossentropy', optimizer=Adam(lr=lr_init), metric
…
